model/model.pth (torch, 17216 bytes, 4 tensors)

linear1.weight f4 [256, 11]
000000 1c 9a 55 3e 69 dc d4 3e 0d 87 e7 be 38 f1 44 be
       0.2085957 0.4157441 -0.45220223 -0.19232643
000010 8a 46 5c 3e 66 b9 8e bd f7 b3 8c 3e d0 3d c9 3d
       0.21511284 -0.06968956 0.27481052 0.09826243
000020 45 72 45 bd 0e 23 b4 bd 45 f7 5b 3e e4 0c ea 3e
       -0.04820468 -0.08795749 0.21481045 0.4571296
000030 d5 f7 3e be 47 a7 c7 3e 85 cd 23 3e 4a 35 4f be
       -0.18649228 0.3899481 0.15996368 -0.20235172
000040 c0 76 25 3e c1 24 71 be d3 bb be 3d b3 05 c1 3d
       0.16158581 -0.23549177 0.093131684 0.09424915
000050 4f e8 61 3e 69 72 e7 3c 1a 62 9b bd 15 2d 82 3d
       0.22061275 0.028252797 -0.07587071 0.06356255
000060 d8 d6 9a bd 88 2d 67 3e ba 1d 89 be 63 96 85 bc
       -0.075605094 0.22575963 -0.26780492 -0.016307062
000070 03 5a 13 be 12 5c 94 be 4d 97 41 be d3 a8 6b be
       -0.14389805 -0.28976494 -0.18905373 -0.2301362
000080 ed eb ad 3d fe d6 14 be ed a9 85 3c 48 c4 91 be
       0.08492265 -0.14535138 0.016316378 -0.28470063
000090 0c bc 55 bc 39 91 8d 3e 8b 0b 70 be ee 8d 88 be
       -0.013045322 0.2764986 -0.23441903 -0.26670784
0000a0 32 00 48 bd da 8b 8d 3e b9 db 7d ba 28 4f 2c 3c
       -0.04882831 0.2764576 -0.00096839253 0.010516919
0000b0 bd 66 03 be 01 1d ad be a9 9a 82 be 5a e6 0a bd
       -0.1283216 -0.3381119 -0.2550862 -0.033911087
0000c0 d2 d4 0e 3e a7 a8 9d be 59 99 19 bc af 50 e5 3d
       0.13948372 -0.30792734 -0.00937494 0.1119703
0000d0 7a 41 b9 3d 4e fa 0f be 6b b7 3e 3e 12 61 bc 3e
       0.09045692 -0.14060327 0.18624656 0.3679281
0000e0 0c ae f5 3e c5 ac 84 3e d8 12 dc 3d 25 ce 77 3d
       0.4798435 0.25913063 0.10745782 0.06049933
0000f0 3c 11 1b be 03 4c 43 3e 4e 5a 99 3c 05 c7 7a 3e
       -0.15143293 0.19071965 0.018719818 0.24489982
000100 38 c5 34 3e 29 6a 3d be 34 ca 0f 3e 6a 89 b1 3e
       0.17653358 -0.18497528 0.14041978 0.3467515
000110 5f 26 86 be 13 fd 96 bb 4e 7f 50 be 61 f6 9f bd
       -0.2620115 -0.0046078055 -0.20361063 -0.07810665
000120 0b c8 7f be 36 ee 27 3e a9 e1 5b be 5e 51 c5 3d
       -0.24978654 0.16399464 -0.21472801 0.0963466
000130 bc e1 b7 3e 38 58 40 be e8 24 bb 3e 40 4a 34 3e
       0.3591441 -0.18783653 0.36551595 0.17606449
000140 57 7c 85 3d d2 34 17 3d 71 82 ef bc c5 58 8e 3e
       0.065178566 0.036915608 -0.029237004 0.278021
000150 a5 03 a8 3e 71 e0 8b bd a2 86 8d be ad ef f5 3d
       0.3281528 -0.06829918 -0.2764178 0.12008605
000160 13 4e e0 bd 21 08 a6 bd 62 c2 a4 bb aa 86 6f 3e
       -0.109523915 -0.08107019 -0.005028055 0.23391214
000170 c6 91 f3 bd dc 0f 80 3e f5 e4 ca bc 20 cd e2 bd
       -0.118930385 0.250121 -0.024767378 -0.11074281
000180 01 57 0e 3e e6 eb bc bd 87 12 b8 bd 06 cb 15 3e
       0.13900377 -0.092246816 -0.08987909 0.14628229
000190 4f 06 75 3e 9c a8 29 3d cc 4a 95 bc ae 72 a7 3d
       0.23928188 0.041420564 -0.018224142 0.0817617
0001a0 a1 97 4d 3e 0d de 04 3e dc 72 2b 3d 4c f9 8b be
       0.20077373 0.1297533 0.041857585 -0.27338636
0001b0 c0 80 96 bd 20 3b ba 3d 94 8e a9 3e 53 28 3f be
       -0.07348776 0.090933084 0.3311659 -0.18667726
0001c0 6c ff f8 3e de d3 4e 3e ff 8d 4d 3e 46 ea 4c ba
       0.4863237 0.20198008 0.20073698 -0.0007816892
0001d0 00 23 ca 3d 20 17 e7 3b 80 cb 76 bd 64 44 2e be
       0.09869957 0.0070523173 -0.060252666 -0.17018276
0001e0 f1 34 83 be d7 3d 50 3e d1 04 b8 3e f5 aa fa 3e
       -0.2562633 0.2033609 0.35941175 0.48958555
0001f0 32 cd 6a 3d 34 af 3b be d1 f6 8e 3d 73 68 30 3e
       0.057324596 -0.18328553 0.0698067 0.17227344
000200 2d 00 67 3a 4e d9 84 be 23 32 88 3d e7 05 53 3e
       0.0008811977 -0.2594704 0.06650188 0.2060772
000210 82 79 9c bd d8 9b 56 3e f7 9b 84 be 9d 0f 4e be
       -0.07640363 0.20957887 -0.25900242 -0.20123143
000220 eb dc 23 3e 6c 9c ae 3e 4f 9b 10 3e bc 0c 5e bd
       0.16002242 0.34103715 0.14121746 -0.054211363
000230 1a b4 93 be fa 56 84 3d 6c 47 15 be 32 75 49 be
       -0.28848344 0.06461902 -0.14578027 -0.19673613
000240 2a 40 a0 be d5 5d 04 be 85 1a 2f bc 57 3e ce 3d
       -0.31298953 -0.12926419 -0.010687475 0.10070484
000250 bc 4b 9e be 07 f7 1b 3e c7 54 47 3e 03 cc 0b 3d
       -0.30917156 0.15230952 0.19465934 0.034130108
000260 67 fd e2 bd a0 cd e4 3d 84 f0 83 3c c3 be 92 bc
       -0.11083489 0.11172032 0.016105898 -0.017913228
000270 42 a7 a0 3c 66 05 f3 bd 58 32 68 3e d3 8e c9 bc
       0.019611005 -0.11866264 0.22675455 -0.024604237
000280 99 52 97 3e 3b 08 b3 be da 71 b2 be f3 3e fc 3d
       0.29555205 -0.34967217 -0.34852487 0.12316694
000290 ff 0d 16 be 86 31 a7 3d e1 71 e5 be 61 51 95 3e
       -0.14653777 0.08163743 -0.44813445 0.2916365
0002a0 50 3d 5d 3e 6f e5 6a be 9d 13 85 be 2d d0 9f 3d
       0.2160542 -0.22939084 -0.25991526 0.07803378
0002b0 23 cd 10 be b3 11 a0 3e 9e 14 9f 3e a2 8c b3 bc
       -0.14140753 0.31263503 0.31070417 -0.021917645
0002c0 6f e6 36 3e d2 4a 96 3d 58 03 16 be ad 6a 16 bd
       0.17861341 0.073384896 -0.14649713 -0.036722828
0002d0 3a bd 0f be 79 f0 40 3b c2 36 62 3b 01 09 41 be
       -0.14037028 0.0029440208 0.0034517501 -0.18851091
0002e0 5a f1 17 3e 45 a2 86 3d c2 3b 04 3d 81 9c 78 3e
       0.14838162 0.06573919 0.032283552 0.24278452
0002f0 97 be ad 3d de ae 40 3d 0b 2f 55 be c2 5c 77 3e
       0.08483618 0.047041766 -0.20818727 0.24156478
000300 44 f2 7b 3e 6c 9e 85 be 68 17 87 3e f6 69 90 bd
       0.24604136 -0.2609743 0.26385045 -0.070514604
000310 21 fa f0 bd 71 f6 5d 3d c8 ea d8 be 2b 58 05 3f
       -0.11766458 0.054190103 -0.42366624 0.5208766
000320 79 3d 57 3c c5 70 48 be 5c f2 12 3e 9d f8 a2 3e
       0.013137215 -0.19574268 0.14350265 0.31830302
000330 22 71 92 be cf bb b8 be b0 8b 42 3d ec dc b2 3e
       -0.28601938 -0.36080787 0.047496498 0.34934175
000340 0a c6 6c be fa fa 96 be 4e e5 cb bd a8 07 1f bd
       -0.23122421 -0.29488355 -0.09955846 -0.03882566
000350 94 bc 5e 3e 20 33 36 be 36 db 54 be 40 ba f0 3c
       0.21751624 -0.1779294 -0.20786747 0.029385686
000360 ae 60 88 bd ce b3 3a be 50 87 b2 3c fc 92 2f be
       -0.06659065 -0.18232653 0.021793038 -0.17145914
000370 11 bf 01 bd f2 2f f6 3e 94 56 1d 3a 95 1d 82 3d
       -0.031676356 0.48083454 0.0006001976 0.063532986
000380 32 af 7a bc a2 fc 11 be a1 51 49 3e 91 88 17 be
       -0.015300559 -0.14256528 0.19660045 -0.1479819
000390 cd 28 48 3e da b8 92 3e af 5e 0a 3e 57 85 28 3e
       0.19546814 0.28656656 0.13512681 0.16457115
0003a0 2d 99 ad 3e 52 97 54 be f2 87 3e 3c 90 09 17 be
       0.33905926 -0.20760849 0.011629092 -0.14749742
0003b0 75 bc 59 be 1c 6f 91 3d ff 87 87 be 53 8f 70 bd
       -0.21263297 0.071012706 -0.26470944 -0.058730435
0003c0 b3 b9 23 be 56 f9 b3 3e a4 46 96 3e 74 bf 75 be
       -0.15988807 0.35151166 0.2935077 -0.23998815
0003d0 1e e4 2c bd fc 61 62 be a7 59 9d 3e d5 7a 82 be
       -0.042209737 -0.2210769 0.30732462 -0.25484338
0003e0 03 e5 2f 3e 87 19 76 3e a0 f0 99 be 1b a2 05 be
       0.17177205 0.24033175 -0.30066395 -0.1305012
0003f0 47 ac ff 3d 35 18 9e be 04 ac 48 be a2 3e b3 3e
       0.12484031 -0.30877843 -0.19596869 0.35008723

linear1.bias f4 [256]
000000 18 95 48 3e 50 9c 43 3e 1f 57 2b bb 78 3f a8 bd
       0.19588125 0.19102597 -0.0026144458 -0.08215231
000010 7e 4c 0e 3e 0f c6 46 bd fa 6d 67 bd bf 82 ec bd
       0.13896367 -0.048528727 -0.056501366 -0.11548375
000020 de bb 27 be a1 55 59 3e 22 c3 d3 3d 07 aa 44 bb
       -0.1638026 0.21224071 0.10339953 -0.003000857
000030 f3 d0 18 bd ba 45 9d 3d 6a c3 a9 bd 28 9c a9 bd
       -0.037308645 0.07679315 -0.082892254 -0.082817376
000040 d1 62 ec 3d ee 5d 18 be 1d e7 8d 3d 44 0b 8d be
       0.11542285 -0.14879581 0.06928847 -0.27547657
000050 0f b7 c5 bd 3c f8 38 be 39 10 ec bc ea d1 0e 3e
       -0.09654056 -0.18063444 -0.02881633 0.13947263
000060 bd 3b 83 be e8 bc 5f 3c d6 ac 04 3c 4a 34 24 be
       -0.25631514 0.013655879 0.008097848 -0.16035572
000070 dd 40 03 be ee 51 2d 3e 49 50 c9 bd 79 15 29 3e
       -0.12817712 0.16925785 -0.09829766 0.16512097
000080 b0 3d 7b be 38 ff 2d be 16 f5 17 bd 5d ed 46 3e
       -0.2453525 -0.1699189 -0.037098967 0.19426484
000090 49 d4 80 be 4f 95 b5 3e 2e 6b 3f 3e cb f8 87 bd
       -0.2516196 0.35465476 0.1869323 -0.0663925
0000a0 09 99 fd bd e2 0c e0 3d c3 9b 97 be 62 27 49 3e
       -0.12382705 0.10939957 -0.29611024 0.1964393
0000b0 22 4f 57 bd fc 1b 6c be b7 17 b0 3e 5c 0c 8b be
       -0.0525657 -0.2305755 0.34393093 -0.27157867
0000c0 a3 a7 47 3e a2 b8 73 be be b1 4c 3e 32 a5 25 3e
       0.19497542 -0.238009 0.19989678 0.16176298
0000d0 87 b4 e5 3d 38 36 e5 3c 9e 4e 23 be 44 b5 d2 be
       0.112160735 0.027979955 -0.15947959 -0.4115392
0000e0 b3 45 c1 3b de 43 86 3e 47 eb fb bd 9a ae d6 bd
       0.0058982014 0.26223654 -0.12300735 -0.10482521
0000f0 f3 11 93 bd ae fb 18 be d6 d3 13 be 0c e2 88 be
       -0.07181158 -0.14939758 -0.14436278 -0.2673496
000100 66 a9 4c 3e 3e 89 7a be 0c 5b 5a 3e 27 72 22 bd
       0.19986495 -0.24466416 0.21323794 -0.039659645
000110 ba 2d 49 3d 8d ae 40 bd de d9 ff bd f1 76 80 3e
       0.049115874 -0.047041465 -0.12492727 0.25090745
000120 0b e3 33 3e e8 19 c0 bd 85 d5 76 bd c8 36 0b be
       0.17567079 -0.09379941 -0.06026222 -0.13595116
000130 a9 4a 49 3e b2 be 62 be b1 66 75 3e 1b 8d 61 3e
       0.19657387 -0.22143057 0.23964955 0.22026484
000140 14 41 c4 3c 53 cc 9f 3c 24 2b 7e 3e c4 13 22 3e
       0.023956813 0.019506609 0.24821144 0.15827852
000150 da 60 69 3e 7b 9b de 3d a4 b2 98 3d 62 d8 a7 3e
       0.22790852 0.10869499 0.07455948 0.32782274
000160 54 3c 85 bc 10 5c 8b 3d 5e 24 8b be 9f 56 89 3e
       -0.016264118 0.06804669 -0.27176183 0.268239
000170 ce 90 8d be 65 bd 94 bd 60 98 77 3e 61 cc 3d 3c
       -0.2764954 -0.07262687 0.2417922 0.011584372
000180 7d e9 20 be 7a 13 b7 bd 1a 59 ed 3c 90 f9 61 3d
       -0.15714069 -0.08939262 0.028973151 0.055169642
000190 be ad 65 bd e7 e0 62 be fd 52 91 3e bc a8 b3 3d
       -0.056073897 -0.22156106 0.28383628 0.08772418
0001a0 8c 8f 74 3c ac 94 b6 3c 00 b7 15 3e e8 cd 93 3e
       0.014926802 0.02228769 0.1462059 0.28868032
0001b0 ce 22 26 3e 2e 7f 19 be 05 3d 95 3d b6 69 9c 3e
       0.16224214 -0.14989921 0.07287029 0.305494
0001c0 e8 06 2f be 7b af a2 be 58 16 49 bb 3f 11 3e be
       -0.17092478 -0.31774506 -0.0030683484 -0.18561266
0001d0 e9 ef 9b 3d 39 cc 98 3e 26 9a 6d be c5 e6 f8 3d
       0.076141186 0.2984331 -0.23203334 0.12153391
0001e0 a5 60 5c 3e 12 7c d7 3d 38 cc 3b 3e fd 7f 8d be
       0.21521242 0.105217114 0.18339622 -0.2763671
0001f0 38 73 20 be 51 fe 1a bd 44 4f d8 3c 60 56 4a bd
       -0.15668952 -0.03784019 0.026404984 -0.04939878
000200 2f f0 95 3b 99 47 a1 3e 51 11 34 be 49 69 ba 3d
       0.0045757513 0.31499937 -0.1758473 0.09102113
000210 3a 41 40 3e 2a 87 20 3e d3 d5 61 3e e1 0c a5 3d
       0.18774882 0.15676561 0.22054224 0.08059097
000220 98 c2 77 be d4 69 5b be 77 66 4f be 19 18 50 be
       -0.24195325 -0.21427089 -0.20253931 -0.20321693
000230 93 01 13 3e 09 a7 9b bc 8b 22 73 3e d4 28 7a 3b
       0.1435607 -0.019000547 0.23743646 0.0038171308
000240 38 22 26 be 4e ef 49 be 56 bb 55 be 6f fa 3c 3e
       -0.16223991 -0.19720194 -0.20872244 0.18454908
000250 2c ce 62 3e 40 f0 1a 3e 50 91 1b bd 58 40 1f bc
       0.22148961 0.1513071 -0.037980378 -0.009719931
000260 d4 55 16 3e aa 5c 74 3d 1a dd 12 3c 34 96 5b be
       0.14681178 0.059658684 0.0089638475 -0.21444017
000270 ca e8 26 3e 34 d2 13 be 05 ea 8a be 3a 1a 22 3e
       0.1629974 -0.14435655 -0.27131668 0.15830317
000280 08 6f d3 bd 25 2b 93 3d a9 7a bd bd 07 14 32 be
       -0.10323912 0.071859635 -0.09251911 -0.17390452
000290 27 97 75 3e c7 08 61 3d 4f 7b 01 3e 16 ca 43 be
       0.23983441 0.05494001 0.12644695 -0.19120058
0002a0 06 fa 81 3c 5d b9 83 3c 56 68 cb bd 76 9f b2 bd
       0.01586629 0.016079599 -0.0993201 -0.08721821
0002b0 77 40 86 bd c4 0c a5 3d 9d 30 55 3d b8 3f 0b be
       -0.065552644 0.080590755 0.052048314 -0.13598526
0002c0 91 5b dc 3d 81 29 04 3e f2 09 6a be 71 1b 35 3e
       0.107596524 0.12906457 -0.22855356 0.1768625
0002d0 d7 28 45 3e 43 3a 33 3e df c3 82 3d 9f ef b8 bc
       0.1925386 0.17502694 0.06385016 -0.022575198
0002e0 2a 6b 6c bd c2 cf e6 bd 21 7b 80 bd 1d bd e2 3c
       -0.057719387 -0.112700954 -0.06273485 0.027678067
0002f0 f7 f8 0c 3e 06 54 17 be 41 12 b5 3e 29 ad e4 3d
       0.13766848 -0.14778146 0.3536549 0.1116584
000300 55 83 0c be cb 20 46 be 61 8a 28 3e fe 36 7b 3e
       -0.13721974 -0.19348447 0.16459037 0.24532697
000310 40 2b d5 bd 92 19 5d be 87 e7 24 be 5f e6 4c 3e
       -0.1040864 -0.21591786 -0.16103946 0.20009755
000320 98 1f a4 bd 29 b5 7a 3e 78 5a de bd 95 29 49 be
       -0.080138385 0.2448317 -0.10857099 -0.19644769
000330 d7 1c 5e bd 45 db 75 be 07 db 21 be 0b 83 50 3e
       -0.054226723 -0.24009426 -0.15806209 0.20362489
000340 c5 d2 41 3e 4d 26 77 bd 0b 82 87 bd 32 be 35 3d
       0.18928058 -0.06033926 -0.066166006 0.044370838
000350 48 da 15 3e 7f 75 7d 3d ff 05 dd bd d8 ac de bd
       0.14634049 0.06187963 -0.10792159 -0.10872811
000360 a6 3a 09 be e2 18 2d 3e b6 9e 40 be 48 91 3e be
       -0.13401279 0.16904023 -0.18810543 -0.18610108
000370 d3 c9 94 3e 9a 37 2d 3e 70 22 37 be ac c0 be bb
       0.2906023 0.16915742 -0.1788423 -0.005821308
000380 35 28 f0 3d 9e 7d 62 bd b8 0f 36 be dc 10 03 3e
       0.11726419 -0.05529558 -0.17779434 0.127994
000390 a5 5c d1 bd 73 38 6c 3e c4 55 23 3e f9 cf b5 bd
       -0.10222749 0.23068409 0.15950686 -0.08877558
0003a0 cd 9c f4 bc a3 cc bd bc cb 9c 80 3d d0 ee 05 3d
       -0.029859925 -0.023168867 0.06279906 0.032698452
0003b0 30 af ca 3d 9d a3 a5 3d 38 d0 39 bd 88 7a 73 bd
       0.098966956 0.080878474 -0.04536459 -0.059443027
0003c0 75 ac 8a bc 87 17 9a be ef 24 34 3e bd 2f d6 bd
       -0.016927937 -0.30096075 0.17592214 -0.10458324
0003d0 04 48 93 be 37 99 4e be d2 03 d2 3d 08 c2 c8 3d
       -0.2876588 -0.20175634 0.10254635 0.098026335
0003e0 f1 f9 90 be df ad f8 3d 69 d2 16 3e 75 33 1c bc
       -0.2831569 0.12142538 0.14728703 -0.009533753
0003f0 30 46 66 3e d6 d6 69 be 10 b0 16 be b7 05 8b 3e
       0.22487712 -0.2283586 -0.147156 0.27152798

linear2.weight f4 [3, 256]
000000 ff 32 8b bd 99 05 d3 bd f5 77 f1 bd 68 31 2e 3e
       -0.06796836 -0.10303802 -0.11790458 0.17011034
000010 59 ca fa 3d 5b 98 91 bd f6 1f 44 bd 2a 64 a7 3d
       0.12245626 -0.071091376 -0.047882043 0.08173402
000020 51 eb 9d bd 5b cd 47 3a 57 9f 54 bd 87 5e 62 bc
       -0.07710899 0.0007621848 -0.05190977 -0.013816482
000030 25 12 20 3e c9 7c ab 3d 44 20 d5 bc 56 2d 44 be
       0.15631922 0.0837341 -0.026016362 -0.1915792
000040 3f 9c c9 bc 9d 6c 3d be ee 56 4c 3e 44 66 c8 3c
       -0.024610637 -0.18498464 0.19955036 0.024462827
000050 46 59 29 bd 6b 69 92 3d 6c a8 17 be 8f e5 63 be
       -0.041344903 0.07149013 -0.14810342 -0.22255538
000060 67 28 1b 3e 7a 75 34 be f8 41 2f bd f2 b2 d6 bd
       0.15152131 -0.17622939 -0.042787522 -0.1048335
000070 98 dc c4 bb b3 4c f3 3b 70 0e be 3d 10 d5 16 be
       -0.006007742 0.0074249147 0.092800975 -0.14729714
000080 76 6c 9e 3c a1 99 a6 bc 90 3b aa bd ac 94 1a 3d
       0.019338828 -0.020336928 -0.08312142 0.03773944
000090 1a 45 60 be 93 95 20 3d 41 87 76 3d a2 4a 9a bd
       -0.2190136 0.039205145 0.060187582 -0.07533766
0000a0 b5 5e 01 be 9d ed a2 bd 3d e4 df 3d f1 d9 dd 3c
       -0.12633784 -0.079554774 0.10932205 0.027081462
0000b0 9f 7c d9 3c 0e 8e 95 3c ef bc 8a 3d f9 94 39 bd
       0.026548682 0.018256214 0.067743175 -0.045308087
0000c0 38 cf ae bd a2 ad 10 be 0f e9 20 bd e5 f6 3d 3c
       -0.085356176 -0.14128736 -0.039284762 0.011594509
0000d0 d6 fd 8f bd c8 09 55 3e 5a fe cc bd af 33 af bc
       -0.07030837 0.20804513 -0.10009451 -0.02138695
0000e0 12 a1 be bd 75 ae b6 3d 8e 13 3e 3d 1e ab 3b bd
       -0.093080655 0.08919994 0.046405368 -0.045817487
0000f0 4d 3b 5f be d5 2d 04 3e 96 74 11 3c 5a 5f 38 be
       -0.21799965 0.12908109 0.008877894 -0.18005124
000100 60 a4 ec 3d e8 21 59 bc f0 d6 f3 bd 27 29 1e bb
       0.115547895 -0.013252713 -0.119062304 -0.0024133415
000110 86 f5 35 bd 1a 04 32 bd f9 7f 11 be 7e 90 da bd
       -0.044423603 -0.043460943 -0.14208974 -0.10672091
000120 60 b2 db 3d 63 39 8d bd 8c f4 8b 3e d8 2a 69 bc
       0.10727382 -0.06895711 0.27335012 -0.014231406
000130 f5 74 d3 bd af 2c 1c 3e 5b d3 19 bd 4b 01 08 be
       -0.10325042 0.1525142 -0.03755508 -0.13281743
000140 c0 ab 06 be a1 71 fa 3b 6b b9 d8 3d 81 a9 4c 3e
       -0.13151455 0.00764294 0.10582241 0.19986536
000150 2f 17 f5 bd 84 7b c6 bd f2 47 7f 3d e9 40 5a bd
       -0.119673125 -0.096915275 0.06232447 -0.05328456
000160 e5 83 68 3d e9 2d bf 3c d3 cc da 3d b1 90 30 bd
       0.05676641 0.023337321 0.10683598 -0.04310674
000170 e6 21 03 be 89 7c 19 bd 2f 12 01 bd f6 33 3e 3e
       -0.128059 -0.03747228 -0.03151148 0.18574509
000180 7a fa b3 3d 1f c4 8b be da c0 10 3e 4e 98 14 be
       0.08788009 -0.27298066 0.14136067 -0.14511225
000190 bf 8b 0e be da 8a d6 3d 92 e9 88 bd 9c 62 d8 bc
       -0.13920496 0.104757026 -0.06685175 -0.026414208
0001a0 5d cb ad 3d f6 fa 6e bb dd 01 aa bd 85 70 00 be
       0.08486054 -0.0036465502 -0.08301137 -0.12542923
0001b0 04 3a 48 3c f1 df c9 3d 71 b6 ee bd 09 76 be 3d
       0.012220863 0.098571666 -0.11655892 0.09299857
0001c0 39 64 cf 3d af b8 c1 3c ac 22 2c be d3 67 ef bd
       0.10126538 0.023647634 -0.16810101 -0.11689725
0001d0 77 f6 b5 be 5f e4 13 3d 7b 48 1b be 77 87 a6 bd
       -0.355396 0.036106464 -0.15164368 -0.081313066
0001e0 63 05 c1 3c e9 07 24 bc 8e 06 26 3e 7c e0 85 bc
       0.023562139 -0.010011652 0.16213438 -0.016342394
0001f0 e4 e8 9e 3c da 08 0e be 2e f1 34 be 60 10 fc 3d
       0.01939816 -0.13870564 -0.17670128 0.12307811
000200 18 7a 59 bd 88 1c 80 bd d2 78 b8 3c 5c 9a 36 bd
       -0.053094953 -0.06255442 0.02251855 -0.044580802
000210 cf 5b 91 3c 68 34 ec bc 6b 04 a4 bd 63 53 fb bd
       0.017743973 -0.028833583 -0.08008655 -0.12271764
000220 08 d7 3e bd 54 bc 20 be 3a 42 50 bd 5f af 07 be
       -0.04659179 -0.15696841 -0.05084441 -0.13250493
000230 8e 78 35 be 9c ba 2b be 98 34 b7 bc 5f 3c b6 3d
       -0.17721769 -0.16770405 -0.022363946 0.088982336
000240 4b f4 ae bb 6d 67 f2 3d 87 ed a7 3d 47 2b 1d be
       -0.0053391806 0.11836133 0.081996016 -0.1534854
000250 8e 38 ab 3d 33 8e 2a be 69 29 11 be ac b8 fc bd
       0.08360396 -0.16655807 -0.14175953 -0.12339911
000260 34 66 68 3c c4 b1 31 3e fe a3 19 be 94 dd f4 bd
       0.014184523 0.17352968 -0.15003964 -0.11956325
000270 59 bf f3 bd 74 38 0f bd b7 94 25 be d9 2c 6b 3d
       -0.11901731 -0.034965947 -0.16170011 0.057415817
000280 58 b3 0e 3d 4c 8e 4a 3e e2 3e 21 bd 4f 69 6b be
       0.034839004 0.19780844 -0.03936661 -0.22989391
000290 34 bc 4d bd dc 38 53 3c a4 15 11 be 04 ab 4e bb
       -0.050228313 0.012891974 -0.14168411 -0.0031535039
0002a0 30 c9 48 3e eb b1 1e 3e 3d 81 1e be 1a a3 59 3b
       0.19607997 0.15497558 -0.15478988 0.0033208788
0002b0 64 ed 17 be 1b 6f 63 be 01 02 a6 3c 76 bf f6 bd
       -0.14836651 -0.22210352 0.020264627 -0.12048237
0002c0 90 d6 1b be 84 7b 18 3e e5 ab ea 3d d1 c6 ef 3c
       -0.15218568 0.14890867 0.114585675 0.029269608
0002d0 0e 9b b4 3d 65 44 6f bd ec 4e 7c bd 06 29 19 3e
       0.08818637 -0.058414835 -0.061598703 0.14957055
0002e0 3c ea ed 3d 18 23 5d be 6c 47 05 3d 82 61 f6 3c
       0.11616942 -0.21595418 0.032538816 0.030075792
0002f0 6a 33 01 bd ba 3c 8e bd ac 39 77 3d 38 2d 2d be
       -0.031543173 -0.069451764 0.060357735 -0.16911781
000300 7b e2 b0 3d 73 8e 1f be 75 70 e9 bd a0 0f 94 bd
       0.08636948 -0.15581684 -0.113984026 -0.07229543
000310 23 cd 78 bc 09 c4 fb 3d 66 36 00 3d c1 87 3d bc
       -0.015185627 0.1229325 0.03130188 -0.011568011
000320 b4 48 af be d1 3d e2 bd 3f f3 5e be e4 ee 4c be
       -0.34235156 -0.11046947 -0.21772479 -0.20013005
000330 cc a6 b0 bd c2 33 de 3c 59 ad 12 bc 3c 59 5f bd
       -0.08625564 0.02712429 -0.008952462 -0.05452846
000340 98 8e a8 bc ce 36 93 3d 09 fb 40 bd 86 71 e3 bc
       -0.020575806 0.071881875 -0.047114406 -0.027764093
000350 90 b7 dc bc a9 c3 56 bb b7 15 f7 bc 55 d9 75 be
       -0.026942998 -0.003277043 -0.030161722 -0.24008687
000360 0d 36 37 3c 30 13 8a bd d0 8a 1b 3e 1c cf 01 be
       0.01118232 -0.06741941 0.15189672 -0.12676662
000370 ec cf a1 3d bd ae 28 bd 84 cb e7 bd 24 98 63 3d
       0.07900986 -0.04118227 -0.113181144 0.055565014
000380 bf bd e4 bc 3c 30 a1 bd a7 00 bc 3d 3c 60 13 3e
       -0.02792251 -0.07870528 0.09179812 0.14392179
000390 a5 92 6d 3d 72 b7 cd bd 06 33 4f 3b 90 8b a1 bd
       0.05800118 -0.10044755 0.0031616106 -0.078879476
0003a0 e5 e9 3b be 63 4f 1e be c3 28 b5 bd 53 ae ae bd
       -0.18350942 -0.15459971 -0.08845665 -0.085293435
0003b0 b3 de 42 bd 06 05 a3 bd 4b 43 6e bc 06 34 1d be
       -0.047575664 -0.079599425 -0.014542411 -0.15351877
0003c0 6b 39 d5 bd 80 88 98 bb a9 c1 80 bd d9 18 c8 bd
       -0.10411342 -0.004654944 -0.06286938 -0.09770364
0003d0 c1 83 0b be bb c3 b4 3d 28 ed c3 bd 58 3b 41 3d
       -0.13624479 0.08826395 -0.09566718 0.047175735
0003e0 13 aa a8 3b 7a 76 3e be ad 13 e6 bd f3 c9 c3 bd
       0.0051472276 -0.18599883 -0.112342216 -0.09560003
0003f0 e9 be 03 be 48 e8 15 bd 5a bc 19 bd 74 18 19 3c
       -0.12865795 -0.036598474 -0.03753314 0.009344209

linear2.bias f4 [3]
000000 09 4c 47 3c 8c 80 53 bd 55 f1 0a bd
       0.012164124 -0.051636264 -0.03392156
