model/model.pth (torch, 17216 bytes, 4 tensors)

linear1.weight f4 [256, 11]
000000 b1 a2 33 3e b7 60 ac bd ee a5 62 be d7 2b 7c bc
       0.1754253 -0.084168844 -0.2213361 -0.015391312
000010 26 f6 da 3d ee 52 36 be 62 85 ed bc 17 20 37 3d
       0.1069148 -0.17805073 -0.028994266 0.044708338
000020 e2 f8 64 3e db 55 8d 3d 17 22 16 bd 43 46 4c 3e
       0.22360566 0.06901141 -0.036653604 0.19948678
000030 55 68 7f 3e 7d 13 34 be 3e e2 12 3e c2 03 13 3e
       0.24942143 -0.17585559 0.14344117 0.14356902
000040 a4 2c 8a bc a2 ec cc 3d e0 82 41 be 7e bb 54 3e
       -0.01686699 0.100060716 -0.18897581 0.20774648
000050 75 b1 7b 3e fe 1e 80 be 91 b2 5a 3e 50 11 ff 3d
       0.24579413 -0.25023645 0.2135718 0.12454474
000060 f1 46 ad 3e a9 5c f6 3d 82 e2 86 3d 93 cc 02 be
       0.33843186 0.12029392 0.06586172 -0.12773351
000070 2a 87 d7 3d 5e 20 1d be e8 02 8e 3e 2a bf 6e 3e
       0.105238274 -0.15344378 0.27736592 0.23315111
000080 9f 37 57 bd bf 3b 02 3e e0 a9 72 3a 7e 55 8f 3d
       -0.05254328 0.12718104 0.0009256881 0.06998728
000090 3c 4a 05 be b5 f2 58 3e 7d f6 17 3e ce 1a 3a be
       -0.130166 0.21186335 0.14840122 -0.18174288
0000a0 06 43 2b be dc 4b 8c bb 36 e7 d4 bd 2c 04 98 bc
       -0.16724786 -0.004281504 -0.103956625 -0.018556677
0000b0 4e 00 9f 3e 39 93 6b 3e ae 5e 82 be 0f b6 e0 bd
       0.3105492 0.2300538 -0.2546286 -0.10972225
0000c0 91 ef 63 3e bd 93 8a be 93 98 12 3e a8 2c 84 3d
       0.22259356 -0.2706584 0.14316015 0.0645383
0000d0 c2 17 9f 3c dd 3d 75 3c 94 df 57 3d 8e 16 c7 3b
       0.019420508 0.014968363 0.052703455 0.006075687
0000e0 4f e5 59 be 15 b0 c5 bd 01 12 a3 be 19 58 30 be
       -0.2127888 -0.096527256 -0.31849673 -0.17221107
0000f0 b8 5a 84 3d 26 8d 1d 3e 6b 09 d7 3d 20 cc 7b 3e
       0.06462616 0.15385875 0.10499843 0.24589586
000100 ba e6 6f 3e 38 6c 92 bd 85 e4 30 3e 52 d8 4f be
       0.23427859 -0.07149547 0.17274673 -0.20297363
000110 5f 96 93 3d 33 95 95 3e ab 0b 3a 3d 82 9d 02 bd
       0.072064154 0.29215392 0.045421284 -0.031888492
000120 07 9e eb 3d 43 2f ee 3c 83 62 d9 bc c3 a9 6d 3d
       0.11504751 0.02907527 -0.026536232 0.058023226
000130 70 66 02 be 2c 56 86 be 48 76 50 3e a8 2b 7e be
       -0.1273439 -0.2623762 0.2035762 -0.24821341
000140 02 e3 9e bd 08 0c 05 be e2 9e 80 3e 18 31 fc 3d
       -0.07758142 -0.12992871 0.25121218 0.123140514
000150 1f b6 34 be 46 bb 5f be bb 36 89 be 6a 8e 81 be
       -0.17647599 -0.21848783 -0.2679957 -0.25303966
000160 a1 e1 49 3e 34 cf 8e 3d b2 ca 50 3d 18 71 f8 bd
       0.19714977 0.069731146 0.050974555 -0.12130946
000170 f6 a1 84 3e 1b 80 d2 3c 28 1e ed bc a7 72 19 3e
       0.25904816 0.025695851 -0.028945044 0.14985143
000180 ae 1e 8b bd 07 50 1a be f4 7d b4 bd 0a e2 59 3e
       -0.06792961 -0.1506959 -0.08813086 0.21277633
000190 e3 db dc 3d 7a c0 4d 3d b7 c4 20 be 22 08 49 be
       0.107841276 0.050232388 -0.15700041 -0.19632009
0001a0 61 10 e4 bb a4 fa 21 bd db b1 87 3e 40 86 44 bd
       -0.0069599603 -0.03954567 0.2650288 -0.047979593
0001b0 cb 51 83 be fc de d9 3d 04 c7 c9 3d dc 1d 3d 3e
       -0.2564834 0.10638234 0.09852412 0.18468422
0001c0 72 be 5b be 4a ef 82 3e 1f d4 48 3e 96 88 0a 3e
       -0.21459368 0.25573188 0.19612168 0.13528666
0001d0 78 0a 44 3d 84 68 7f be 4e 15 89 be 54 18 98 3e
       0.047861546 -0.24942213 -0.26774067 0.2970606
0001e0 5e 50 61 3d c7 58 37 be d9 49 28 be f7 78 9f 3d
       0.055008285 -0.1790496 -0.1643442 0.07786744
0001f0 50 10 90 be c0 20 70 3e 68 48 e7 3d 30 ea b2 3d
       -0.28137445 0.23449993 0.11293107 0.08736074
000200 53 cb 8a be 85 9c 48 be 9b 52 14 3e a0 3d 8c be
       -0.2710825 -0.19590957 0.14484636 -0.27390766
000210 b5 d1 d4 bc ce 31 60 bd 21 31 84 3e e7 16 81 3e
       -0.025978902 -0.054734997 0.25818732 0.25212786
000220 0a 31 7f bc 01 2f 82 be 30 45 30 3d e3 12 51 be
       -0.015575657 -0.25426486 0.043034732 -0.20417361
000230 7f bb 8a be 5c 16 86 be 6c e3 01 3e ed de 4c 3e
       -0.27096173 -0.26188934 0.12684411 0.20006914
000240 04 52 cc bd f5 d1 37 3e 5d b6 a6 3b 6f a2 b5 3d
       -0.09976581 0.17951186 0.0050876574 0.088688724
000250 08 b7 50 3e fb 37 1e be 36 40 82 be 98 00 40 be
       0.20382321 -0.15451042 -0.25439614 -0.18750226
000260 3e 2e 05 3c c7 2b b0 3d 10 4f b2 3e 08 f4 04 be
       0.008128701 0.086021 0.34825945 -0.12983716
000270 43 07 2c 3e cc 45 81 be d9 d1 84 3e cc d4 4b be
       0.16799645 -0.25248563 0.2594135 -0.19905394
000280 76 31 f1 3d 00 a9 8e 3c e9 bc 61 3e 8e 95 e5 bd
       0.11777012 0.01741457 0.2204472 -0.11210166
000290 ba e7 8b be 38 7a 1a be 21 d8 76 be 80 8b eb bc
       -0.2732523 -0.15085685 -0.24105884 -0.028753042
0002a0 75 32 92 be 6a 26 7f 3e c5 5a 81 be e4 8d 82 be
       -0.2855412 0.24916998 -0.25264564 -0.2549888
0002b0 00 74 58 be d3 91 31 bd a2 09 8e bd 5b f7 49 be
       -0.21138 -0.04335196 -0.06935431 -0.19723265
0002c0 21 a2 f3 3d cc 0c a4 3e 40 d8 11 3e 59 4d 06 be
       0.11896158 0.32041013 0.14242649 -0.13115443
0002d0 f5 3e a8 3c 26 f0 71 3e d9 b2 a0 3e 8e f7 ac bd
       0.020537833 0.23626766 0.3138645 -0.08445655
0002e0 88 40 c9 3c f2 05 9b 3e af b3 de 3b ce dc 95 bd
       0.024566904 0.30277973 0.0067963223 -0.07317506
0002f0 8a 5b ab 3e c1 7f 64 be cb be d3 3d 2a f9 32 be
       0.33468276 -0.22314359 0.10339125 -0.17477861
000300 3b 79 48 bd fc c6 82 3e 0d b9 5a 3e 48 99 0f bd
       -0.04894374 0.25542438 0.21359654 -0.03505829
000310 81 e8 a5 3c 36 f1 87 be 73 7e 7c bb 34 71 a1 3d
       0.020252468 -0.26551217 -0.0038527518 0.0788292
000320 5b 5d 8b bd c0 e9 7f 3e 7d 54 5d 3e a0 49 03 ba
       -0.068049155 0.24991512 0.21614261 -0.00050082244
000330 47 e7 a3 be 68 06 0c be d1 f5 89 bd 21 95 f9 3d
       -0.32012388 -0.13674319 -0.06736339 0.12186647
000340 f3 6e 97 be 9b c2 57 3e fb 1a 1b be 2f 1d 92 3d
       -0.29576835 0.2107033 -0.15147011 0.071344726
000350 68 8f 41 be 43 2e 52 3e 70 85 a4 3e e1 dc 4d 3e
       -0.18902361 0.2052546 0.32133055 0.2010379
000360 53 8e 68 3d 26 65 bf bd 30 c7 43 3d c4 9a 6a bc
       0.056776356 -0.093454644 0.047797382 -0.014319126
000370 37 8d 8f bd bb d8 d6 3c 81 94 30 3e 63 73 40 3e
       -0.070093565 0.026226392 0.1724415 0.18794017
000380 2c c8 a2 3c 31 09 6a bd 45 3d 02 3e b4 86 a7 be
       0.01987084 -0.05713767 0.12718685 -0.32719958
000390 de 76 80 be 83 dd 28 3e 68 14 4d be 30 90 d9 3d
       -0.25090688 0.1649075 -0.20027316 0.10623205
0003a0 d1 41 63 3c 8f bc 95 3e 87 61 31 3e fd 66 97 3d
       0.013870672 0.2924542 0.1732236 0.0739269
0003b0 25 99 49 3e 53 70 66 be 2e ec 2b be 22 b7 27 3e
       0.19687326 -0.22503786 -0.16789314 0.16378453
0003c0 68 e9 50 be 73 d2 36 3e fb cd 57 bd a2 0d 88 3e
       -0.20401537 0.17853718 -0.052686673 0.265729
0003d0 47 c8 64 3e ca 44 c2 3d 17 9a 49 be 8a 71 85 be
       0.22342025 0.09485777 -0.19687687 -0.26063186
0003e0 12 b7 5e 3e 8f c9 2b be f5 8b 0d be b6 aa 92 be
       0.21749523 -0.16776107 -0.1382292 -0.28645867
0003f0 4f c6 4f be bb 24 59 be 2c 02 83 3e 5f e9 19 be
       -0.20290492 -0.21205418 0.25587595 -0.1503043

linear1.bias f4 [256]
000000 de c0 6d 3e 40 dc 5c be 5c ac 96 3e 13 ef 23 3e
       0.23218104 -0.21568394 0.29428375 0.16009168
000010 c0 8a 63 3e e5 d0 62 be 06 58 4b 3e 42 8d 39 be
       0.22220898 -0.2215 0.19857797 -0.18120292
000020 13 7d 03 3e 59 77 96 be 48 93 bb bd 14 7e 19 3e
       0.12840681 -0.2938793 -0.09158951 0.14989501
000030 7e 6b 52 3e 83 cb 66 3e 35 db 0e bd 56 ba 57 3e
       0.20548818 0.22538571 -0.03487702 0.21067175
000040 f9 59 b1 3e a4 8a 00 3d cd ad 7b 3e 76 47 8f 3d
       0.34638956 0.031382218 0.24578018 0.06996052
000050 d1 43 7f 3e c4 dd 24 be e9 39 6e 3e d5 dc 23 3e
       0.24928214 -0.16100222 0.23264278 0.1600221
000060 1e d4 90 bd a7 35 8c be 34 9a 2f be f1 b9 b9 3d
       -0.07071708 -0.27384683 -0.17148668 0.09068669
000070 0d 8f 51 be 2d fb 8e 3e 0d 80 95 be e6 52 76 be
       -0.20464726 0.27926007 -0.29199257 -0.2405506
000080 26 e1 ed 3d 0b 8e 0d 3e 60 c1 f0 3d 9e 8e 9f 3e
       0.11615209 0.13823716 0.11755633 0.31163496
000090 2e 3e b2 3d 74 5f 06 3e 04 84 86 be 9e 59 6d 3b
       0.08703266 0.1312235 -0.26272595 0.0036216746
0000a0 7c c7 b1 3d cd be 94 3d e5 ae 34 be 4c c4 e2 3d
       0.08680627 0.07262955 -0.17644842 0.11072597
0000b0 d0 fa 30 3e a9 9a 61 be f0 ac fc 3d a7 ab 9f 3e
       0.17283177 -0.22031654 0.12337673 0.31185648
0000c0 e9 a3 85 3e 17 67 a3 be 8b b3 41 3e 77 6b 38 be
       0.26101616 -0.3191459 0.18916146 -0.18009745
0000d0 95 30 68 3e 61 3c f0 3d df 0a b3 3d 03 b6 31 be
       0.22674783 0.11730266 0.08742308 -0.17354588
0000e0 fe 85 3e 3e 5b 82 60 3e 36 52 0c be dc 84 99 bb
       0.18605801 0.21924727 -0.13703236 -0.0046850275
0000f0 81 25 71 be 0b 7c 13 3e 83 d0 42 bd dc 0f 5b 3d
       -0.23549463 0.14402787 -0.047562134 0.05348192
000100 94 59 a3 bc df 98 30 be 15 2c 94 bd 13 a8 62 3e
       -0.019940175 -0.17245816 -0.072349705 0.22134428
000110 03 d9 49 3e e3 26 13 be 91 e9 90 be 9a 4c 7f 3e
       0.1971169 -0.14370303 -0.28303197 0.24931565
000120 c0 d2 0e be bb e5 8a 3e 9e 76 4f bd c0 6f 81 3b
       -0.13947582 0.27128395 -0.05065023 0.003950089
000130 e9 29 98 3d 5a 78 99 be e0 63 78 bb 32 e8 99 3e
       0.07429869 -0.29974633 -0.0037901327 0.30059963
000140 32 29 85 3c f1 9e 2a 3e 6f 5f 7c 3e 72 ea 36 be
       0.016254995 0.16662194 0.2464578 -0.17862871
000150 b3 49 85 3e 01 27 7e bd aa 1a 43 3e 2d 25 89 be
       0.2603279 -0.062048916 0.1905314 -0.26786175
000160 3c 00 01 3e e7 90 8d bd c8 c7 b5 3c 81 9a 52 be
       0.12597746 -0.069124036 0.02218999 -0.20566751
000170 e4 af 88 be 44 6d 4f 3e 60 9a 21 bd cc 84 d4 3c
       -0.26696694 0.20256525 -0.039453864 0.025942229
000180 5c bf 34 3e 4c 06 2d 3e 6f a5 48 3e 9e e8 a3 bd
       0.17651123 0.16896933 0.19594358 -0.080033526
000190 d3 95 2b be b5 c6 84 3e ee 90 56 3e ef 0a 88 3e
       -0.16756372 0.2593285 0.20953724 0.26570842
0001a0 8e df 8b 3e 4a 92 a9 be 36 2a 80 be cb 20 8f 3e
       0.27318996 -0.33119422 -0.25032204 0.27954707
0001b0 b4 92 70 bd de 41 fa 3b d4 a5 78 be a9 7c 94 3e
       -0.058733657 0.0076372465 -0.24282008 0.29001358
0001c0 44 c3 4e bd 47 4c 89 3e a1 ff c1 bc da e3 23 be
       -0.05047919 0.26816007 -0.023681464 -0.16004887
0001d0 98 ab 6b be 98 96 34 be c3 52 73 3d 2b 4b 16 3e
       -0.23014677 -0.17635572 0.0594051 0.14677112
0001e0 dc 9f a5 be a6 ee 9a 3e a2 e4 2b be 95 68 b3 3d
       -0.32348526 0.302602 -0.16786435 0.08760182
0001f0 89 23 33 be 95 4a 8f be 22 68 87 3c ad 09 30 3e
       -0.17494024 -0.2798659 0.016529147 0.17191191
000200 49 a1 ca bd 2f cf 2b be 07 c9 d8 bd 32 a3 71 be
       -0.09894044 -0.16778253 -0.10585218 -0.2359741
000210 ae 31 94 be b5 e5 00 3e 5c c4 89 3d 6a 23 52 3e
       -0.28944153 0.12587626 0.06726906 0.20521322
000220 f2 59 63 be f7 b5 ef 3d 82 74 76 be e6 e2 a2 be
       -0.2220228 0.11704629 -0.24067882 -0.31813735
000230 48 54 47 be 51 20 2a 3e ba 77 6c be 21 99 11 bd
       -0.19465744 0.1661389 -0.23092547 -0.035546426
000240 7f ce f8 3d e9 b5 30 be 56 03 88 3e c2 35 f4 bd
       0.12148761 -0.17256893 0.26565045 -0.11924316
000250 2a b0 0f be 40 a5 4d be 9f f2 45 3e bf a6 30 3e
       -0.14032045 -0.20082569 0.19330834 0.17251109
000260 6f b8 61 3e 6f bd 84 bc 6a 5d 9b bd ec de 8b 3e
       0.22043012 -0.01620361 -0.07586177 0.27318513
000270 84 b1 95 be a3 a7 9b be df f4 a5 3e 6a 9b 50 3c
       -0.29236996 -0.30401334 0.32413384 0.012732366
000280 51 8c 8d be c4 eb 59 bc 11 70 8d 3d 15 67 9f 3d
       -0.27646115 -0.01330084 0.069061406 0.07783333
000290 23 86 0d be 77 e5 de 3d 42 e1 73 3e e8 7e 36 3e
       -0.138207 0.10883611 0.23816398 0.17821848
0002a0 2a 79 a2 3e 4a 83 2d 3e fe 06 20 3d 86 d9 b9 3b
       0.31733066 0.16944614 0.03906917 0.005671683
0002b0 88 7d 6d be 30 1b 43 3e e0 67 01 3e 16 b3 89 bd
       -0.23192418 0.1905334 0.12637281 -0.06723611
0002c0 1d 24 8f 3e 7c 5d 10 bc 24 8b 4b 3d d4 0b 43 3e
       0.2795724 -0.008811351 0.04969324 0.19047481
0002d0 0c 34 c6 bd 28 18 4b be 95 b3 62 bd 28 06 85 3e
       -0.09677896 -0.19833434 -0.055347044 0.2598126
0002e0 f2 00 eb bd c6 05 93 be 87 8b 9a 3d 78 c5 93 be
       -0.1147479 -0.28715342 0.07546144 -0.28861594
0002f0 63 37 c2 3d 79 b2 17 3e 83 8d 35 3c e5 d6 3c 3e
       0.094832204 0.14814176 0.011081102 0.18441351
000300 5b d4 0a be d6 eb d7 3c f4 04 6b be c1 71 66 be
       -0.1355757 0.026357573 -0.22951108 -0.22504331
000310 8e 1e 20 3e 60 66 84 bd 89 c1 06 3c 77 9b 89 be
       0.15636656 -0.06464839 0.008224853 -0.26876423
000320 7a 6a 6d bd 8e 2e 5d 3e 3c 85 f4 bb 60 60 fd bc
       -0.057962872 0.2159979 -0.007462172 -0.030929744
000330 6e 21 4a 3e 9b ce 01 3e 55 5e 35 3e bb 65 44 be
       0.19739315 0.1267647 0.17711766 -0.19179432
000340 9d 32 4b be bf 42 03 bd 7d ed 60 be 48 8f 9c 3e
       -0.19843526 -0.032046076 -0.21965595 0.30578065
000350 43 03 b5 be 18 19 aa 3d 24 fc 94 be d7 b5 d3 3b
       -0.3535405 0.083055675 -0.29098618 0.006460886
000360 73 13 c7 3d ab 93 6c bd 6f 18 3d be 48 ab 91 3e
       0.097205065 -0.057758015 -0.18466352 0.2845099
000370 20 41 93 3e ee e2 90 be c4 d1 37 3e 15 f9 28 be
       0.28760624 -0.28298134 0.17951113 -0.16501267
000380 6e df 91 be 63 17 84 3e b6 5c 22 be d4 c1 84 3d
       -0.28490776 0.25799093 -0.15855679 0.06482282
000390 df 9c 6a 3e d3 57 8e be dd d0 17 be f0 10 83 be
       0.22911404 -0.2780138 -0.14825769 -0.2559886
0003a0 ac 64 3d be c3 a8 9b bd 02 d1 87 be 31 25 93 be
       -0.18495435 -0.07600548 -0.26526648 -0.28739312
0003b0 74 b3 ea bd 16 9b 90 3e c2 2a 35 3d da c0 15 be
       -0.11460009 0.2824332 0.04423023 -0.14624348
0003c0 10 80 69 be 54 72 20 3e 42 aa 30 3e 89 05 9d 3b
       -0.22802758 0.15668613 0.17252448 0.0047919196
0003d0 94 3f 2e be 92 e7 83 3e 1d bf f2 bd 2d 25 10 3d
       -0.1701644 0.25762612 -0.11852858 0.035191704
0003e0 37 f7 d8 bd 78 fd 38 3e 6a 0e 4c 3e 0c 2e 4b be
       -0.105940275 0.1806544 0.19927374 -0.19841784
0003f0 44 f8 2f be 14 2d 9f 3d a0 79 c2 3d 1f e0 57 bd
       -0.1718455 0.0777227 0.094958544 -0.052703973

linear2.weight f4 [3, 256]
000000 cb ff 61 bc 39 90 e1 3c dd 87 0d 3a 71 ae 22 bb
       -0.013793896 0.027534591 0.00053989684 -0.0024823213
000010 2d 92 a0 bd ae bd 15 bd 17 dc 84 bd 00 60 d0 3b
       -0.07840381 -0.036557846 -0.06487291 0.0063591003
000020 5f 95 85 3a 77 e6 5e 3d e3 12 84 bd 92 fe 72 3c
       0.0010191611 0.054419007 -0.06448915 0.014831202
000030 9e d5 84 bc 0d f2 63 bd bd 2e 91 bd 5e f5 09 3d
       -0.016215142 -0.05565076 -0.07088993 0.033681266
000040 d0 71 a9 bd 3c 9a 92 bd 9a c3 f5 3c 2a 33 0c bc
       -0.08273661 -0.07158324 0.030000497 -0.00855712
000050 fa b8 b0 bc 16 a7 86 3d d7 24 df bb 19 b7 8c 3d
       -0.021572579 0.06574838 -0.0068098116 0.068708606
000060 1c 64 0a 3d 23 d3 1e 3c 7f 97 e6 3c 47 ca 0a bd
       0.033786878 0.009693894 0.02814841 -0.033884313
000070 79 13 81 bd 17 41 71 bd 89 7d 32 3d 46 79 0e bd
       -0.06302542 -0.058899965 0.04357675 -0.034783624
000080 b1 c8 95 bc 59 04 d7 bc fa f7 d2 3c 35 c3 b4 bb
       -0.018284174 -0.02624719 0.02575301 -0.0055164346
000090 73 dc 60 bd 04 7f 69 bd 77 07 8b 3d f7 49 d9 bc
       -0.054897737 -0.057005897 0.06788533 -0.026524527
0000a0 92 33 85 bc 3a e3 23 bd c3 a9 2e bc 8d d2 31 3c
       -0.016259942 -0.040011622 -0.010660592 0.010853422
0000b0 10 ce a6 bb 90 6a c6 3b b2 17 36 3c 6f 20 48 bd
       -0.0050904825 0.0060551837 0.011114048 -0.048859056
0000c0 0f fe c7 bd 55 95 69 3c 29 85 44 bd e7 2d f4 bc
       -0.09765255 0.014256795 -0.047978554 -0.029807044
0000d0 09 e1 a0 bd 60 b3 f9 36 d0 96 91 3d f4 94 03 3d
       -0.07855422 7.4416603e-06 0.07108843 0.032124475
0000e0 7f 6d 09 bd 7d af aa bd 2e 19 50 3d d6 e5 22 3d
       -0.03355169 -0.08334253 0.050805263 0.03976997
0000f0 dd ba 25 3d 54 44 a9 3b 83 83 93 bc f5 13 b8 bd
       0.04046141 0.005165616 -0.018007046 -0.089881815
000100 f1 35 4d bd ec c0 5d bd c9 53 b9 bd 68 e4 09 3c
       -0.05010027 -0.054139063 -0.09049184 0.008416273
000110 33 79 1c 3d 9f 29 96 bd 50 29 c9 3d a6 a2 b4 bd
       0.038201522 -0.07332157 0.09822333 -0.08820085
000120 9d 70 9e 3b d7 80 7f bd 2b 9d 68 bd b0 c7 09 bc
       0.004835202 -0.06237873 -0.056790512 -0.008409426
000130 da 4f 8c bc ff 18 3b bc 30 d8 52 bd be e9 ad bd
       -0.01712792 -0.011419534 -0.051475704 -0.084918484
000140 6b fe b5 3d 1b 07 73 bd af 5a 97 bc 0b de 16 3c
       0.08886417 -0.05933295 -0.018475858 0.009208213
000150 83 5d 8c bc 99 e2 19 bd c9 72 00 bd 1a c8 09 bd
       -0.017134434 -0.037569616 -0.031359468 -0.033638097
000160 d1 b8 9a bd 20 d0 60 39 d7 9c 49 bd b5 0d 7c bd
       -0.07554782 0.00021439837 -0.04922184 -0.06153651
000170 ce 0e 9a 3d dc 8d 83 bc b0 38 63 3c 30 a0 4e 3c
       0.07522355 -0.016058855 0.013868496 0.012611434
000180 81 80 01 bd dc 19 2b 3c 20 73 e8 bc f2 ca 12 bd
       -0.03161669 0.010443177 -0.028375208 -0.035838075
000190 9b df a7 3c 2c 93 5a bd c4 05 8f 3b a3 ea c3 bb
       0.020492366 -0.05336301 0.004364701 -0.0059788986
0001a0 f7 fd f9 bc 92 d8 85 39 a6 4b ad bc 4e 00 db bd
       -0.030516608 0.00025529094 -0.021154236 -0.106934175
0001b0 64 d6 02 3d 17 9b 4b bd fa ad 14 3d 0e e8 22 bd
       0.03194274 -0.049708452 0.03629873 -0.039772086
0001c0 e5 83 24 3d 37 e4 3d 3a 5b 2b 1d 3d 78 ac 23 bc
       0.040164847 0.00072437845 0.038371425 -0.00998985
0001d0 86 42 a8 bb 28 ff 78 bb 4d 72 91 3c 15 0b 00 bc
       -0.0051348833 -0.0037993882 0.017754698 -0.007815142
0001e0 de a0 45 3c 70 b3 2e bd 2e 68 83 bd 36 fd 3c 3d
       0.0120622795 -0.042651594 -0.06416355 0.04613992
0001f0 64 ad 6f 3c bb 47 c9 bc 03 45 a0 bc e5 e2 91 3c
       0.014628742 -0.024570337 -0.019564157 0.017808387
000200 53 3c 31 bd 74 78 6f bd fb e5 33 3d 0c 8a 9c bd
       -0.04327042 -0.058464482 0.0439205 -0.07643518
000210 8d c8 5f bd b2 54 7b bd cd 30 07 3c 83 f7 de bc
       -0.05463462 -0.06136007 0.008251381 -0.027217632
000220 a7 43 a2 3c 94 8e 81 bd 28 36 88 3d 0a 28 7c bb
       0.01980765 -0.06326023 0.066509545 -0.0038476014
000230 80 a7 15 3c 6a c7 94 bd 8e 77 95 bd 4f 13 0f bc
       0.009134173 -0.07264598 -0.07298194 -0.008732631
000240 7e 6f 00 bd d2 b3 28 bc 34 c3 a5 bd b1 ac c5 bc
       -0.031356327 -0.010296779 -0.08093873 -0.024130197
000250 34 65 b7 bd 8c 76 79 bc 6c 70 63 bd 32 0b 4e 3b
       -0.0895485 -0.015226018 -0.055527136 0.0031439778
000260 b8 e1 33 bc a2 b5 3c bd 78 49 11 bc b3 2e 38 bc
       -0.0109791085 -0.046071656 -0.008867614 -0.011241603
000270 c2 e5 53 bc 14 55 85 3d 62 de b3 bd 59 57 3a bb
       -0.0129331965 0.06510368 -0.087826505 -0.002843341
000280 48 35 9c 3c 35 a8 b1 bd c9 56 ce bd b0 ce 4e bb
       0.019068375 -0.08674661 -0.10075147 -0.00315563
000290 ff 1e 62 bd 14 58 c2 bd e5 43 c6 bd 06 58 02 bd
       -0.05520534 -0.09489456 -0.096809186 -0.031822227
0002a0 80 01 c3 bd 1c 1f aa bc ce 35 b8 bd 30 ae 38 bb
       -0.095217705 -0.020766787 -0.089946374 -0.0028179996
0002b0 0b eb 2f bd 73 2e 79 3d c2 91 05 3b 80 80 92 ba
       -0.042948764 0.060835313 0.0020381068 -0.0011177212
0002c0 26 67 50 bd d2 9f b6 bd 13 54 70 bb c7 19 b7 bd
       -0.05087962 -0.08917202 -0.0036671206 -0.089404635
0002d0 ce b0 4b 3d d0 52 41 3c a1 24 8b bd cd 4a b1 bd
       0.04972916 0.011799529 -0.06794096 -0.08656845
0002e0 48 46 91 3c bc 6c 7e bd f7 1f 1f bc 56 00 bb bb
       0.017733708 -0.062115416 -0.009712211 -0.005706827
0002f0 63 63 1f bb 05 30 4f bc 4d a6 82 3c 4d 13 e2 bc
       -0.0024320714 -0.012645726 0.015948439 -0.027597094
000300 61 27 35 bb 0e d0 0b 3d 62 1f a0 bd 93 a3 c0 bd
       -0.002764188 0.034133963 -0.07818486 -0.09406199
000310 0e 27 f1 bc 1a db 2e 3c 97 fa c5 bc 2e 12 98 bd
       -0.029437568 0.010672355 -0.024167342 -0.074253425
000320 82 00 9d bd d1 c9 a0 bd d7 9b e7 3c 12 e3 81 bd
       -0.076661125 -0.078509934 0.028272552 -0.06342138
000330 c3 90 90 bc c2 64 54 3d 10 e5 1f 3d 47 51 f0 3c
       -0.017647153 0.051853903 0.03903681 0.029335631
000340 c2 bc 56 bd 32 42 93 bc 7c 80 5b bd 4c d5 9e bd
       -0.052426107 -0.0179759 -0.05358933 -0.07755527
000350 b4 f1 18 bc 50 0e ac bc b5 95 ca 3c 18 42 3c bd
       -0.00933497 -0.021002918 0.024729589 -0.04596147
000360 17 6d c6 bd 2a ba b3 bd f9 ef e3 3b fd be 98 bd
       -0.09688776 -0.08775742 0.006956097 -0.07458303
000370 53 34 03 ba e4 eb 2d 3d d6 e7 d2 bc 41 64 55 bd
       -0.00050050503 0.04246129 -0.025745314 -0.052097563
000380 eb f2 10 bc 7f c3 4b 3d c2 d5 c9 bc 63 32 bb 3d
       -0.008846979 0.049746986 -0.02463806 0.0914047
000390 7f 48 83 bb ea 82 40 bd 66 ff c4 bd 41 ff cd 3c
       -0.004006445 -0.04699985 -0.09619026 0.025146129
0003a0 9f 8e 94 3c 82 bb 46 3b 34 2f e3 bc 83 5e 14 bd
       0.018134413 0.0030324166 -0.02773247 -0.036222946
0003b0 0c ac 0d 3c e7 70 5a bb f1 b7 2c 3c e5 5b d6 3c
       0.008646976 -0.0033331455 0.010541902 0.026166866
0003c0 8e 87 7e 3d 09 f1 4b 3c 21 5e 2b 3d 0e 8d c3 3c
       0.062140994 0.012447604 0.041837815 0.023870971
0003d0 46 26 23 bc 1c 8d 62 bc eb 1c e4 3c 75 95 86 bd
       -0.009957856 -0.013827588 0.02784582 -0.065714754
0003e0 62 ae 7c bd 91 a2 8b bc 77 c9 24 3d 5d b4 a8 3d
       -0.061689742 -0.017045291 0.040231194 0.082375266
0003f0 eb d3 bf bd 3a 17 c0 39 9a 4c 4d bc 19 55 4d bb
       -0.09366592 0.000366384 -0.01253047 -0.003133124

linear2.bias f4 [3]
000000 22 65 95 bd 9b e3 84 bd 6c 41 a9 bc
       -0.0729468 -0.06488725 -0.020661078
